models/checkpoint_best.pth (torch, 249807 bytes, 131 tensors)

bias f4 [10]
00000000: fd6d 023e ff0f a33d 29a5 713c a150 afbd
00000010: a906 da3d 9a27 91bd 6303 933c 07b8 413d
00000020: e969 4abd e1d7 c7b9
0.1273727 0.079620354 0.01474885 -0.085603006 0.106458016 -0.070876315 0.01794595 0.047294643
-0.04941741 -0.0003811708

weight_g f4 [10, 1, 1]
00000000: 56e9 073f 1e63 1c3f 119e 0f3f ddf4 1c3f
00000010: 62a9 2a3f 5972 113f 200c 2d3f 1ef9 243f
00000020: 2c45 193f 5cea 0e3f
0.5309042 0.6108874 0.56100565 0.6131113 0.6666471 0.56815106 0.67596626 0.6444262
0.5987117 0.55826354

weight_v f4 [10, 6, 7]
00000000: ee37 92bc e81e fdbd 8025 ac3d 3671 36bd
00000010: 8bb5 013e 5250 5d3d 9676 f93c 7418 0f3e
00000020: 1a7d 52bb edef b93d 7b08 4dbd e895 183e
00000030: 01a1 ce3d 614e 863d c839 12bd 8677 0abd
00000040: dd5e d53d 17b2 a13d ca8a c23d 1f8c 88bd
00000050: ddd4 2bbd da99 31be 0814 8ebd 11fc f1bd
00000060: 253f 70bd 8b17 c93d 8cd5 af3d 9e2d c33d
00000070: a253 ebbc 8777 32bd 6ce9 1bbd e08b adbd
00000080: 19b0 9ebd c21c 763d 2874 203d 638a a3bd
00000090: df5c 9a3d 5bc0 adbd ca2a 1ebe 47c1 0ebe
000000a0: 9eb3 273d b79d 09be 0fa5 a7bd 1ae1 993d
000000b0: 9ac6 37bd 89e9 d23d 288f 05be 1c9a 31be
000000c0: 3c19 07be ed8a d63d 384b 103e 05b7 133e
000000d0: d36a da3d 5629 35bd 78e6 92bd 6f2a d1bd
000000e0: 8b4c babd e64a b6bd 0a68 d0bd b27a 9abd
000000f0: da14 243d 34b3 1e3e f687 a0bd 9966 bf3d
00000100: 139e 20be bfc4 bc3d c791 943d c54c 073c
00000110: 70ce 51bd 5f12 cfbd d79d 10be fdc4 193e
00000120: d0a3 9f3d dd14 c0bd 2d47 cf3d b765 07be
00000130: ad66 a1bc 8e7e 6a3d 3329 b13d fbad ed3b
00000140: 2844 16bd a45a c23a 4617 74bd d347 6fbd
00000150: d994 353b 617b b4bd 0c09 e83d 189d 503d
00000160: 021f 05bc 8328 b4bd 9084 1bbe 89b1 aa3d
00000170: 3eee 953d 8aa0 dabd 4718 8c3b 0cd6 123e
00000180: 243d 3e3a 0106 1a3e 24b3 87bd bdba 25bd
00000190: b1ec 22bc 3603 bc3c 5744 fc3d 1854 823a
000001a0: d639 4a3d 6fd2 51bc be87 9f3d f132 863d
000001b0: 192f bfbb 69ac 21be 291d 5e3d 297b 943d
000001c0: 9c30 243d bfcf 3b3d c686 c23c 7f8d cfbd
000001d0: 6770 febc dfec 173d 8583 33bd 8953 bc3c
000001e0: c46d 8c3d f6a3 de3d 1526 083b ff5a fd3c
000001f0: 0353 bb3d 553a 92bd 21ed 923d bb58 2e3c
00000200: 5245 2e3d c68b b1bd fc78 1a3d 3df9 223e
00000210: dc9a 5e3e a515 a33d e202 ce3d ad91 b8bd
00000220: 3d49 963d 7fdc b33c dfa0 4a3d f71c beba
00000230: 4667 d33d 21cc d6bb ddfb 8b3d 8575 1cbd
00000240: e3c0 803d 07e5 b53d 0796 a73b 51b6 75bd
00000250: cdf8 7b3c 8952 8bbc 750c 8e3d 1ceb 1dbd
00000260: 21dc 8bbc 3009 77bc 4fe3 f03c 2fb2 dd3d
00000270: 1f56 a8bd b831 6f3d 656f 18bd fead 91bd
00000280: a19a 6d3d 0036 813d d9d9 05bc 2f27 89bd
00000290: f9b8 af3d 860c 273d 7994 1a3d e613 8cbc
000002a0: 53f0 abbd 2870 7abc 32df 1dba 949f 0dbe
000002b0: 55ca 19bd 8194 823d 53cf 713e 937b e43d
000002c0: 34ab 043e 30e5 7ebc b1a3 ab3d eaf0 e1bd
000002d0: a707 ac3d 51f8 c73d 4ed8 7dbd eb16 f4bd
000002e0: 33ac 37ba a4ec ce3d b032 91bc d43d 4fbd
000002f0: eec3 113e 58cf 153d f922 a1bd dd3e bf3d
00000300: f663 8a3c 330b 6ebd 3bec 613d 98f3 6a3d
00000310: 9ee7 4cbd 075a a53d dfab c3bd 636e 673d
00000320: 347d ca3d a37c 403c 3493 6d3d c1bf 4f3d
00000330: e0a3 9ebd 721f 083e ff6f 183e 9a5a 41bd
00000340: 241f 163e 4748 02be bf53 31bd b651 12be
00000350: 569e c73d 5700 40bd e1d2 34bd f23c b7bd
00000360: cd66 443e cf69 f23d f631 09be 5bc4 5e3d
00000370: da00 3cbc b986 ac3b 0e7f 243d d14e a73c
00000380: 1b16 15be 5d9f 47bd d146 7d3d 9343 653d
00000390: c42f 0cbe de76 edbd f721 8c3d 2eea e7bc
000003a0: f383 8b3d 5643 a4bd 8197 1cbd dc7f 6f3c
000003b0: 3013 1dbd 0b9b bebc 9c9d 683d ab9f 97bd
000003c0: 4d2b b0bd a8e2 f13d f84c d03d 667b 00be
000003d0: 2962 e63c 0d20 e03c ccf6 cbbd da95 56bd
000003e0: 8561 a33c 66da 03be 8c50 803d 4563 02bd
000003f0: 6c4b a93d a031 0e3e e4cf e6bd f070 ed3d
-0.017848935 -0.123594105 0.0840559 -0.04454156 0.1266691 0.054031678 0.030452054 0.13974172
-0.0032118023 0.09078965 -0.050056916 0.14900935 0.10089303 0.06557918 -0.035699636 -0.033805393
0.10418484 0.07895296 0.09499128 -0.06667351 -0.04195105 -0.17343846 -0.069374144 -0.11815656
-0.05865397 0.098189436 0.08585653 0.09530185 -0.028726403 -0.04357102 -0.038064405 -0.08473945
-0.07748432 0.06008602 0.039173275 -0.079853795 0.07537245 -0.084839545 -0.1544601 -0.13940917
0.04094278 -0.1343907 -0.08185779 0.07513638 -0.044867136 0.102984495 -0.13042891 -0.17343944
-0.1319322 0.10475717 0.14091194 0.14425285 0.10664906 -0.044228874 -0.07172865 -0.10213172
-0.09096631 -0.089010045 -0.10176094 -0.075429335 0.040058948 0.15498048 -0.078384325 0.09345741
-0.156853 0.09217214 0.07254367 0.008258049 -0.051222265 -0.10110926 -0.14122711 0.15016551
0.07794917 -0.09378979 0.101209976 -0.13222395 -0.01970228 0.0572496 0.08650436 0.007253406
-0.036686093 0.0014828038 -0.059592508 -0.058418106 0.0027707128 -0.08812595 0.113298506 0.050931066
-0.008125069 -0.087967895 -0.15187287 0.083346434 0.07320832 -0.10675152 0.004275355 0.14339465
0.00072570355 0.15041353 -0.06625965 -0.04046129 -0.009944127 0.02295075 0.12317722 0.0009943275
0.049371563 -0.012806519 0.07789563 0.06552685 -0.005834472 -0.15788426 0.054227028 0.072500534
0.04008542 0.04585242 0.023745906 -0.1013441 -0.031059457 0.037091132 -0.0438266 0.022989051
0.06856874 0.10871117 0.0020774652 0.03092718 0.091466926 -0.07140032 0.07174135 0.010641272
0.042546578 -0.08669238 0.037713036 0.1591539 0.21738762 0.07963113 0.100591436 -0.090121605
0.07338188 0.021955727 0.049469825 -0.0014504482 0.10322432 -0.006555096 0.068351485 -0.038198013
0.0628679 0.08881574 0.00511432 -0.059988324 0.015379143 -0.01700713 0.0693597 -0.038554296
-0.01707274 -0.015077874 0.029405264 0.108250014 -0.08219551 0.058397025 -0.03721561 -0.071132645
0.058008794 0.06309128 -0.008169615 -0.06696927 0.085802026 0.040783428 0.03773925 -0.017099332
-0.083954476 -0.015285529 -0.00060223334 -0.13830405 -0.037546474 0.06375981 0.23614244 0.111563824
0.12955934 -0.015557572 0.08380831 -0.11032279 0.08399897 0.097641595 -0.061973862 -0.11918434
-0.00070065557 0.10103729 -0.017724365 -0.050596073 0.14234897 0.03657469 -0.07867999 0.09338162
0.016893368 -0.05811615 0.055156928 0.057361215 -0.050025575 0.08073812 -0.09554266 0.056501757
0.09887162 0.011748466 0.058001712 0.05071998 -0.077461004 0.13293245 0.14886473 -0.047205545
0.14660317 -0.12722884 -0.043292757 -0.14288983 0.09746997 -0.046875324 -0.044146422 -0.08947171
0.1917984 0.11836588 -0.13397965 0.054386478 -0.011474812 0.0052650836 0.04016023 0.020423325
-0.14559214 -0.048735965 0.061835114 0.055972647 -0.13690096 -0.11594938 0.06842416 -0.028309908
0.06812277 -0.08020656 -0.038230423 0.014617886 -0.038348377 -0.02326729 0.056790933 -0.07403501
-0.08602009 0.118108094 0.101709306 -0.12547073 0.028122978 0.027359033 -0.09959182 -0.052389003
0.019943962 -0.12876281 0.06265363 -0.031832952 0.08266339 0.13886118 -0.11270121 0.11593807

weight f4 [10, 6, 7]
00000000: a940 87bc 3523 eabd 6f3c 9f3d 7ac2 28bd
00000010: 7af6 ef3d 49b7 4c3d 1bc1 e63c 245d 043e
00000020: e7b3 42bb 18fe ab3d 05a8 3dbd 6524 0d3e
00000030: e821 bf3d a177 783d 5f42 07bd 1415 00bd
00000040: 555e c53d ac91 953d bff3 b33d 109d 7cbd
00000050: d9f1 1ebd 1048 24be 406c 83bd 2cd6 dfbd
00000060: 9d3a 5ebd c002 ba3d afa5 a23d 5d8a b43d
00000070: 90ad d9bc 1e15 25bd 0d38 10bd ee87 a0bd
00000080: 6ec9 92bd 9ca7 633d 956b 143d 8c46 97bd
00000090: 3dc9 8e3d 7ab8 a0bd 1d4e 12be 810c 04be
000000a0: e31f 1b3d 3697 febd 4834 a2bd b0e2 943d
000000b0: cfcf 31bd 4d11 cc3d 8f39 01be 9cd6 2bbe
000000c0: d9b6 02be 8694 cf3d 709c 0b3e d1eb 0e3e
000000d0: 3b54 d33d 4448 2fbd 0922 8ebd b460 cabd
000000e0: ca40 b4bd 6e60 b0bd 9fa4 c9bd 4c77 95bd
000000f0: aec1 1e3d bd8c 193e 4952 9bbd 7630 b93d
00000100: ae67 1bbe 7aa4 b63d 7abf 8f3d b6e8 023c
00000110: 64ff 4abd 0b5a c8bd 61ec 0bbe 7dc7 143e
00000120: 8b75 9a3d 11d9 b9bd 218d c83d d900 03be
00000130: c529 9cbc 66e2 623d 5e69 ab3d 5df7 e53b
00000140: c363 11bd f80b bc3a 642b 6cbd e783 67bd
00000150: 2148 503b 4705 cfbd c913 053e f449 6f3d
00000160: 18b2 18bc 39a6 cebd bb62 32be f7ca c33d
00000170: 17fa ab3d 56c6 fabd e1b1 a03b 696d 283e
00000180: 5136 5a3a ecab 303e 4ca7 9bbd 4e19 3ebd
00000190: ade1 3abc 95a8 d73c 39ae 103e 0f7e 953a
000001a0: 3ef6 673d c8ac 70bc f3fc b63d 9bee 993d
000001b0: d94b dbbb 4c72 39be 36c6 7e3d 7250 aa3d
000001c0: 3955 3c3d 8d6d 573d 5921 df3c 6b12 eebd
000001d0: 23ed 11bd cf43 2e3d f8e8 4dbd b704 d83c
000001e0: f013 a13d d560 ff3d 242b 1c3b 094e 113d
000001f0: 79de d63d ccba a7bd 0634 c33d 1ea2 673c
00000200: 5588 673d 48e2 ebbd a53a 4d3d f985 583e
00000210: c8df 933e b6ab d83d e5d9 083e f036 f5bd
00000220: beaa c73d c3f5 ee3c 9c9a 863d 9394 fcba
00000230: df6e 0c3e 0bb0 0ebc c8fa b93d 46de 4fbd
00000240: 270f ab3d 54a9 f13d bea6 de3b 5b39 a3bd
00000250: df61 a73c d119 b9bc 10b9 bc3d 9ece 51bd
00000260: 9fd0 b9bc 761a a4bc f404 203d 3745 133e
00000270: f5a5 dfbd ece4 9e3d ac85 4abd 068c c1bd
00000280: 80d6 9d3d beaa ab3d e5d4 31bc fd37 b6bd
00000290: 1976 e93d 0ff0 5d3d 2a5f 4d3d b71a babc
000002a0: dcca c0bd 0368 8cbc f804 31ba dacc 1ebe
000002b0: 6171 2cbd e46a 923d a691 873e e018 003e
000002c0: 72c2 143e b9e7 8ebc ef74 c03d 2c58 fdbd
000002d0: 05e5 c03d 3239 e03d fa50 8ebd d6d8 08be
000002e0: 10f3 4dba 7205 e83d f3ce a2bc 7c60 68bd
000002f0: ce71 233e cdfa 273d 1dae b4bd dc70 d63d
00000300: db2c 9b3c 1e75 85bd ec52 7d3d 4fb9 833d
00000310: b7c1 65bd 0b68 b93d 4867 dbbd 0ec0 813d
00000320: 4d0c e33d 2cd5 573c d831 853d 2af2 683d
00000330: 80e1 b1bd eea1 183e 09ed 2a3e 0fce 58bd
00000340: 4754 283e 6b15 12be 311b 3abd 2a90 19be
00000350: 4e80 d13d c481 49bd a4c6 3dbd 4f4f c0bd
00000360: ff1f 4e3e 2a6a fe3d c7fc 0fbe b6cb 693d
00000370: 9c4f 45bc 5311 b53b e2a3 2c3d 4797 af3c
00000380: a177 1cbe 6281 51bd 6de8 843d 459d 703d
00000390: 7e20 13be 7e38 f9bd 0212 933d 7965 f3bc
000003a0: 2c6c 923d 3665 acbd 2758 24bd 485b 7b3c
000003b0: f6d9 24bd c80a c8bc c821 743d 5921 9fbd
000003c0: 12e4 b8bd 51dc fd3d f99c da3d c8d7 06be
000003d0: 0bca f13c 9e38 eb3c d80f d6bd 8335 61bd
000003e0: 3678 ab3c 8261 0abe d0aa 863d ced7 08bd
000003f0: 2026 bb3d a630 1d3e 7b27 ffbd c03d 033e
-0.016510325 -0.114324965 0.07775199 -0.041201092 0.117169335 0.04997948 0.028168252 0.12926155
-0.002970928 0.08398074 -0.046302814 0.13783415 0.09332639 0.060660962 -0.03302228 -0.0312701
0.09637133 0.07303175 0.08786725 -0.061673224 -0.038804863 -0.16043115 -0.064171314 -0.10929522
-0.054255117 0.09082556 0.07941758 0.08815453 -0.026572019 -0.040303342 -0.035209704 -0.078384265
-0.07167326 0.055579767 0.03623541 -0.073865026 0.06971977 -0.07847686 -0.1428761 -0.12895395
0.037872206 -0.12431185 -0.07920128 0.072698 -0.043411072 0.09964237 -0.12619613 -0.16781086
-0.12765063 0.101357505 0.13633895 0.13957144 0.103188 -0.042793527 -0.069400854 -0.09881726
-0.0880142 -0.086121425 -0.09845852 -0.07298145 0.038758926 0.14995094 -0.07584054 0.09042446
-0.1517627 0.0891809 0.07018943 0.007990053 -0.049559966 -0.09782799 -0.1366439 0.14529224
0.07541951 -0.09074605 0.09792543 -0.12793292 -0.019062886 0.05539169 0.083697066 0.0070180134
-0.03549553 0.0014346829 -0.057658568 -0.056522276 0.0031781273 -0.101084284 0.12995829 0.058420137
-0.009319805 -0.10090298 -0.17420475 0.09560197 0.0839731 -0.12244861 0.0049040173 0.16447987
0.0008324134 0.17253083 -0.07600269 -0.04641085 -0.011406344 0.026325503 0.1412896 0.0011405366
0.05663132 -0.014689632 0.08934965 0.075162135 -0.0066923914 -0.18110007 0.062200747 0.08316125
0.045979712 0.05259471 0.027237581 -0.11624607 -0.03562654 0.042545136 -0.050271004 0.026369436
0.07865131 0.12469641 0.0023829425 0.03547481 0.10491652 -0.081899256 0.09531407 0.014137773
0.0565265 -0.11517769 0.050104756 0.21144857 0.2888167 0.10579626 0.1336437 -0.11973369
0.09749363 0.029169923 0.06572458 -0.0019270353 0.13714169 -0.008708964 0.09081036 -0.050749086
0.083524995 0.11799875 0.0067947796 -0.07969924 0.02043241 -0.022595318 0.09214985 -0.051222436
-0.022682486 -0.020032149 0.039067224 0.14381872 -0.10920326 0.07758507 -0.049443886 -0.094505355
0.07706928 0.08382176 -0.010853981 -0.08897398 0.113994785 0.054184016 0.050139584 -0.022717817
-0.09413692 -0.01713944 -0.00067527546 -0.15507832 -0.042100314 0.07149294 0.26478308 0.12509489
0.145273 -0.017444478 0.09397303 -0.12370333 0.09418682 0.10948409 -0.06949039 -0.13363966
-0.00078563485 0.113291636 -0.019874072 -0.05673264 0.15961382 0.041010667 -0.08822272 0.10470745
0.018942287 -0.06516479 0.06184666 0.06431829 -0.056092944 0.09053048 -0.10713059 0.0633546
0.110863306 0.013173383 0.065036476 0.05687157 -0.08685589 0.14905521 0.16691984 -0.052930888
0.164384 -0.14265983 -0.045436088 -0.149964 0.1022955 -0.04919602 -0.046332017 -0.09390127
0.20129393 0.12422593 -0.1406127 0.05707904 -0.012042906 0.005525747 0.04214848 0.02143444
-0.1528001 -0.05114878 0.06489644 0.058743734 -0.14367864 -0.12168978 0.07181169 -0.029711472
0.071495384 -0.08417742 -0.04012313 0.015341587 -0.040246926 -0.024419203 0.05960253 -0.077700324
-0.09027876 0.12395538 0.106744714 -0.13168252 0.029515287 0.02871352 -0.10452241 -0.054982673
0.020931344 -0.13513759 0.06575549 -0.033408932 0.09138131 0.15350589 -0.12458702 0.12816525

bias f4 [10]
00000000: f947 243e 7ad4 e5bd 8503 293d 1454 0b3d
00000010: cb68 5ebd 7ef5 0c3e ef66 b83d e613 66bd
00000020: d5b5 a83d cd5a 553d
0.1604308 -0.11222167 0.041263122 0.03401573 -0.054299157 0.13765523 0.09004008 -0.05617132
0.08237807 0.052088547

weight_g f4 [10, 1, 1]
00000000: 75af 223f c464 183f e4d3 1e3f 7d52 053f
00000010: 6ee7 1b3f 2e2c 2c3f a82e 2d3f 38d9 113f
00000020: 61c6 1b3f d26b 0c3f
0.63548976 0.59528756 0.6204207 0.5207899 0.6090001 0.6725491 0.67649317 0.56972075
0.6084958 0.5485202

weight_v f4 [10, 10, 7]
00000000: a606 37bd dff3 4cbc e159 7fbd c849 9a3d
00000010: f82f d53d 7018 b3bc 3f98 3bbd 57e9 9c3d
00000020: 0ba3 933d 6904 0e3c 037f 2bba 6d9e b03c
00000030: d3c6 7d3d 1512 a73c 9a5b cebc 2695 c03d
00000040: bd44 423d 41f1 aebc 8320 7fbd 72a4 28be
00000050: f600 053d 4725 a33d c11f 8dbb aeda 913d
00000060: bfce b4bd 84ff 2a3c ed4f 243d eccc 363d
00000070: 7a88 c5bc 6841 913d 421b 3a3d fd2b 3cbd
00000080: e37b a9bd c116 69bc f9c3 2ebd caf9 27bd
00000090: c16f cabb 0ca7 913a d198 6a3d c19f efbc
000000a0: 9abb 8c3c 2d92 6f3d b4ec d23d 4e8b d23c
000000b0: 2a48 93bb f1cf e83d e755 81bd 54f7 a0bd
000000c0: 093d 8cbd cd2b 9ebc 5db6 6a3d b5b0 d23d
000000d0: 4447 84bc 89d2 8b3d 27e0 91bc 1e62 a9bd
000000e0: a9d7 e2bc 83c0 7cbd 29bb d83d c8a9 ba3d
000000f0: b25d 8cbd 7212 333e e686 cfbd ac2d c7bc
00000100: c019 2abd 9838 32bd d5d9 96bd c678 eebc
00000110: 3782 2f39 c286 6abd 40fb cdbd 5953 743d
00000120: 3f67 3cbd 2db7 c1bd 1d9c 98bd 2355 e0bd
00000130: bc39 1abd 54a9 82bb 56ae 0e3d f780 b9bd
00000140: 4334 983b 5aeb cc3d f9e6 3e3d 6bea a7bb
00000150: fee6 b73d f135 9ebd 8740 bebd ca8d 27bd
00000160: d87f 893d 4660 1abd 11e0 0f3d e66d 53bd
00000170: 48cd dc3d 9ea0 ca3d 3d9a 123d 3c38 91bd
00000180: 3939 4cbd ad92 963b c7fe 8c3d ae79 523d
00000190: 8d3a d13d d0ed ba3d 6237 e9bd b2fc 27bd
000001a0: 7e2a 47bd 0eb2 983d 1bec 9abd 0688 883d
000001b0: a6b9 2f3c ae3d c93d d2ac c2bd 2a3e e5bb
000001c0: 4ab8 1abd ec23 4e3d dc0e d03d 9c60 b93d
000001d0: eb1d d23c 4c82 1b3e c881 d2bc 1b88 243d
000001e0: acbb d93d e367 883d 2694 bcbc 6006 b83d
000001f0: d1ca bfbd 6fd3 b6bd c362 8bbc 028e dcbb
00000200: 57b4 3c3b 906c ec3d 7875 77bd 021c 29bd
00000210: c6bb cd3b bedc a83d b037 16bc 430b 08bd
00000220: 3462 bc3d 3c1f a6bd 3888 723d 00ef 063e
00000230: 3c75 cbbc 9bf3 c03d d2ae 433d b948 383d
00000240: 2efb bb3d 9401 a23d fab5 e3bc 1582 6f3b
00000250: 3328 8fbd a86d 55bd c622 aa3d 3d18 453d
00000260: e4eb 99bc 6b04 b53c 0112 8e3d b164 a3bd
00000270: 97f7 9bbc c477 333b 8e73 a23d bb03 04be
00000280: 89ca bebc 142d 83bc 43d7 e9bc b28e af3c
00000290: ff1f aebc 4a3f b93d 7865 393e 68cf 013e
000002a0: e219 b83c 8171 80bd 9ad2 e03d ee09 923c
000002b0: d9d0 5c3d 28cc 213e c8f2 a63d 4828 103d
000002c0: 120e cebc c834 cd3d 871b d53c 448c 69bb
000002d0: e34a 913c 0f8e 5c3b 75a7 ad3c e273 b43c
000002e0: f8aa 91bc d72c f23d 451c 7abd be51 81bd
000002f0: a5c3 993d 1fcb a53d 7a9a 4cbd e7dc c23d
00000300: d997 963d 819b 113d 3f1e 863b b628 92bd
00000310: 2c8a 29bd fcf0 893d 3e45 733d 0334 2d3d
00000320: 459a 573b 650b 0b3e e38d 84bc b46c b4bd
00000330: 30a0 663d 3093 9fbc 3115 343d 021a 03bd
00000340: f5c1 b4bd fc93 f73b 4ec7 e2bd a315 4a3d
00000350: 83b7 ab3d 331e afba 24ca bd3d 5cca 9f3d
00000360: de23 b8bd de4b 44bd 5b51 cfbd 95b0 ba3d
00000370: 372d be3c bd0b 3bbd ac8a ccbc afc8 f0bc
00000380: d508 6dbd 74ff da3c ce14 00bd 2fec cbbd
00000390: 4ce5 c8bb 8dfc bcbd 6110 fe3d 363e bbbd
000003a0: 182c c2bd eca9 8bbb b85e 8abd 7b2b 29bd
000003b0: 4258 b2bd 9cd2 30bd 024e 3bbc 60aa fd3c
000003c0: e919 7d3c 32d2 07bd 1e95 5fbd 5754 92bd
000003d0: 53bf cd3c 3e79 ec3a c04e 4c3d 0dca efbd
000003e0: b7cd b4bd a041 f2bc 09b4 c03c b286 0f3d
000003f0: 13d8 9e3d 235e 04bc 0fd8 c9bd 81de da3d
-0.044684075 -0.012509315 -0.062341575 0.07533604 0.1040954 -0.021862239 -0.04579949 0.076616935
0.07208832 0.008668044 -0.00065420585 0.021559918 0.06195719 0.020394364 -0.025190163 0.09403448
0.047428835 -0.021355273 -0.062286865 -0.16468981 0.03247162 0.079660945 -0.004306764 0.07121788
-0.08828496 0.010436896 0.040115286 0.044629022 -0.024112929 0.070925534 0.04543615 -0.045940388
-0.08275583 -0.014226616 -0.042667363 -0.0410097 -0.006177873 0.0011112406 0.057274643 -0.029250981
0.0171793 0.058489013 0.10299054 0.025701191 -0.0044946866 0.11367787 -0.06315213 -0.07859674
-0.06847579 -0.019307995 0.05730282 0.102876104 -0.016147263 0.06827266 -0.01780708 -0.082706675
-0.027690725 -0.06170703 0.10582573 0.091144145 -0.068538085 0.17487505 -0.10133152 -0.02431377
-0.041528463 -0.043511003 -0.07365767 -0.029110324 0.0001673781 -0.05725742 -0.10057688 0.0596498
-0.0459969 -0.09458766 -0.07451651 -0.109537385 -0.037652716 -0.0039874706 0.03483423 -0.09057801
0.004644902 0.10005827 0.04660699 -0.0051243803 0.08979605 -0.07725132 -0.09289651 -0.040906705
0.067138374 -0.03768947 0.035125796 -0.05161848 0.10781342 0.098939165 0.035791624 -0.07090804
-0.04985926 0.004595122 0.068845324 0.051385574 0.10216246 0.091273904 -0.113875166 -0.041012473
-0.048624508 0.07455836 -0.07564565 0.066665694 0.010725414 0.098262176 -0.09505619 -0.006995936
-0.037773408 0.050327227 0.10159084 0.0905163 0.025649032 0.15186423 -0.02569665 0.040168863
0.10631499 0.0666044 -0.023019861 0.08985591 -0.09364856 -0.089270465 -0.017014867 -0.006730796
0.0028794014 0.11544144 -0.06041476 -0.041286476 0.006278488 0.08245228 -0.00916855 -0.033213865
0.09198418 -0.08111426 0.05921194 0.13177109 -0.024836175 0.09421464 0.047774144 0.04499123
0.09178768 0.07910457 -0.027796734 0.003654604 -0.06990089 -0.05210653 0.08307414 0.04811882
-0.01878924 0.022096833 0.06937028 -0.0797819 -0.019038958 0.0027384618 0.079321966 -0.12892048
-0.023289936 -0.016012706 -0.028545028 0.021430347 -0.021255491 0.090452746 0.18105114 0.12676775
0.02247328 -0.06271649 0.10977669 0.017827 0.05391011 0.15800536 0.081517756 0.035194665
-0.025153194 0.10019833 0.026014103 -0.0035636583 0.017735904 0.003365401 0.021198014 0.022027913
-0.01778172 0.11824959 -0.061062116 -0.06314419 0.07508019 0.08095383 -0.049952008 0.0951479
0.073531814 0.03554869 0.004092961 -0.07136671 -0.041391537 0.06735417 0.059392206 0.04228593
0.0032898348 0.13578565 -0.016180938 -0.08809796 0.05630511 -0.019479364 0.043965522 -0.032007225
-0.08826057 0.007555483 -0.110731706 0.04933704 0.083846115 -0.001336044 0.09267071 0.07802269
-0.08991216 -0.047923915 -0.10122939 0.091157116 0.02321492 -0.04566549 -0.024968468 -0.029392568
-0.05786975 0.026733138 -0.03126984 -0.09957158 -0.00613085 -0.09227858 0.12405468 -0.09142725
-0.094810665 -0.0042621996 -0.067563474 -0.04130123 -0.0870824 -0.043169603 -0.011432173 0.03096503
0.015448072 -0.033159442 -0.05458557 -0.07144993 0.025115645 0.0018041504 0.04987979 -0.1170846
-0.088282995 -0.029572308 0.023523347 0.035040565 0.07756057 -0.008079085 -0.09855663 0.106869705

weight f4 [10, 10, 7]
00000000: 0ece 59bd e9e5 73bc ccef 97bd 399b b73d
00000010: 99b2 fd3d a520 d5bc e73d 5fbd 65ba ba3d
00000020: eeb0 af3d ed00 293c 8b15 4cba 282e d23c
00000030: f8ff 963d 55d1 c63c 0092 f5bc 722d e53d
00000040: 0c2f 673d 6f2f d0bc a9cd 97bd 27b0 48be
00000050: 0247 1e3d 9825 c23d d2f0 a7bb d991 ad3d
00000060: 3e2a d7bd d37d 4b3c fe88 433d 5d89 593d
00000070: 9811 ebbc 73db ac3d 8578 5d3d b8ed 5fbd
00000080: 89b0 c9bd c0b0 8abc 8cf9 4fbd 12e5 47bd
00000090: 67e7 f0bb 6754 ad3a 7796 8b3d 3594 0ebd
000000a0: a279 a73c 208c 8e3d 4201 fb3d 5b8d fa3c
000000b0: c744 afbb 9e86 0a3e 82e9 99bd a08d bfbd
000000c0: 05e3 a6bd 213a bcbc 0ba8 8b3d ddb9 fa3d
000000d0: 076a 9dbc 4864 a63d 5c98 adbc de91 c9bd
000000e0: 46f9 06bd e563 96bd 16f5 003e 2022 de3d
000000f0: e309 a7bd 8319 553e 2df6 f6bd d306 edbc
00000100: 666c 4abd 4416 54bd 1084 b3bd b0e4 0dbd
00000110: f0db 5039 b88b 8bbd 2d5c ccbd 0067 723d
00000120: 97eb 3abd d130 c0bd 9668 97bd 1591 debd
00000130: f402 19bd 08a2 81bb d18e 0d3d 270b b8bd
00000140: 8d01 973b 6b4e cb3d 4866 3d3d 0c98 a6bb
00000150: 6974 b63d 21f7 9cbd 26c1 bcbd 263c 26bd
00000160: c46a 883d 3029 19bd 25be 0e3d d8c3 51bd
00000170: 5710 db3d 4c08 c93d d172 113d 9a13 90bd
00000180: b09d 4abd 4163 953b a8e2 8b3d 8cd1 503d
00000190: ef94 cf3d 2175 b93d 6c61 e7bd 2faa 26bd
000001a0: 2699 45bd 5b7e 973d ecb3 99bd e574 873d
000001b0: 8b57 2e3c 28a8 c73d 8724 c1bd 3770 e3bb
000001c0: 8380 19bd 8784 4c3d 996b ce3d 0eeb b73d
000001d0: 8276 d03c ee48 1a3e 96d9 d0bc 8e3c 233d
000001e0: ea04 d83d 0455 873d 2418 bbbc 8b93 b63d
000001f0: 5548 bebd 0563 b5bd e249 8abc 91d1 dabb
00000200: 1438 3b3b 2490 ea3d d082 75bd 3bc7 27bd
00000210: 321d cc3b 7788 a73d fc08 15bc 1ef9 06bd
00000220: 97e6 ba3d 7bd0 a4bd 7d9f 703d 18df 053e
00000230: 7188 e0bc 35f0 d43d daf3 573d 7b5f 4b3d
00000240: fb73 cf3d 95c9 b23d 4f4c fbbc 9f28 843b
00000250: 5ffc 9dbd 4089 6bbd 5cc2 bb3d b482 593d
00000260: 82dd a9bc 8dc4 c73c 5cc9 9c3d 7b51 b4bd
00000270: 741f acbc d00e 463b 5e47 b33d 6fb0 11be
00000280: d98d d2bc 8cc3 90bc 1308 01bd 0cbe c13c
00000290: 5d29 c0bc 976f cc3d ba99 4c3e a741 0f3e
000002a0: cb2b cb3c 82bf 8dbd 591c f83d 852a a13c
000002b0: 58b0 733d a18e 323e d73d b83d fb16 1f3d
000002c0: 2466 e3bc 5876 e23d 9e2e eb3c b1de 80bb
000002d0: b057 a03c a266 733b 57a4 bf3c 0b25 c73c
000002e0: b8c1 a0bc 5da1 053e 4b02 8abd f9b6 8ebd
000002f0: 18b1 a93d 8ef7 b63d 0fcc 61bd 300c d73d
00000300: 3531 a63d a8b0 203d bb02 943b 7d4c a1bd
00000310: f319 3bbd da3a 983d 173c 863d ef24 3f3d
00000320: 86ef 6d3b 8372 193e e648 92bc 1f1d c7bd
00000330: d183 7e3d b91a b0bc 8bbc 463d 80ae 10bd
00000340: 347b c7bd 939c 083c d39f d8bd 3709 413d
00000350: 2f07 a43d e246 a7ba a64a b53d bda2 983d
00000360: 22e5 afbd cb81 3bbd f208 c6bd a054 b23d
00000370: 4aa9 b53c b3ab 32bd 1562 c3bc ab00 e6bc
00000380: ca6b 62bd 2931 d13c 4fb1 f4bc b1ca c2bd
00000390: 81e6 bfbb 4486 b4bd 23b0 f23d eadb b2bd
000003a0: 5e7a b9bd 0169 85bb a22c 84bd 5998 21bd
000003b0: f55b aabd c2e7 28bd 00eb 32bc b24e f23c
000003c0: b4c4 713c 54bd 01bd 4692 55bd 04c7 8bbd
000003d0: eb88 c43c a1e2 e13a d828 433d 6f0d e5bd
000003e0: 3bb5 acbd bb68 e7bc 2613 b83c 8119 093d
000003f0: 4dbb 973d b5e1 fcbb 65ce c0bd af11 d13d
-0.053175025 -0.014886358 -0.074187845 0.08965153 0.123875804 -0.026016543 -0.054502394 0.09117583
0.085786685 0.010315162 -0.00077851926 0.025656775 0.07373041 0.02426974 -0.029976845 0.11190309
0.05644135 -0.025413243 -0.074122734 -0.19598447 0.038641937 0.09479827 -0.0051251436 0.08475084
-0.10506104 0.012420136 0.047738068 0.053109515 -0.028694913 0.08440294 0.054070015 -0.054670066
-0.098481245 -0.016929984 -0.050775096 -0.048802443 -0.007351804 0.0013224006 0.06815808 -0.03480931
0.020443741 0.069603205 0.12256099 0.030584982 -0.005348775 0.13527915 -0.07515241 -0.09353185
-0.08148769 -0.022976937 0.06819161 0.12242482 -0.019215597 0.08124596 -0.021190815 -0.09842275
-0.03295257 -0.07343272 0.12593493 0.108463526 -0.081561826 0.20810513 -0.12058673 -0.028933918
-0.049419783 -0.051779047 -0.08765423 -0.03464192 0.00019918359 -0.068137586 -0.09978519 0.05918026
-0.045634832 -0.09384311 -0.07392995 -0.10867516 -0.037356332 -0.003956083 0.03456003 -0.08986502
0.004608339 0.099270664 0.04624012 -0.0050840434 0.08908922 -0.076643236 -0.09216528 -0.040584706
0.06660989 -0.037392795 0.034849305 -0.05121216 0.10696476 0.09816036 0.035509888 -0.07034989
-0.04946679 0.004558951 0.068303406 0.05098109 0.10135829 0.09055544 -0.112978786 -0.040689643
-0.048241757 0.07397147 -0.075050205 0.06614093 0.010640989 0.0974887 -0.09430795 -0.0069408673
-0.037476074 0.049931075 0.100791164 0.0898038 0.025447134 0.15066883 -0.025494378 0.03985267
0.10547812 0.06608012 -0.02283866 0.0891486 -0.0929114 -0.08856777 -0.016880933 -0.0066778143
0.002856736 0.11453274 -0.059939206 -0.040961485 0.0062290663 0.081803255 -0.00909638 -0.03295242
0.09126013 -0.08047577 0.05874585 0.13073385 -0.02740881 0.10397378 0.05272279 0.049651604
0.101295434 0.08729855 -0.030676035 0.0040331627 -0.077141516 -0.05750394 0.091679305 0.053103164
-0.020735506 0.024385715 0.07655594 -0.08804604 -0.021011092 0.0030221231 0.087538466 -0.1422746
-0.025702404 -0.017671369 -0.03150184 0.023650192 -0.023457224 0.099822216 0.19980517 0.13989888
0.024801156 -0.06921293 0.12114782 0.019673595 0.059494346 0.17437221 0.0899617 0.038840275
-0.027758665 0.110577285 0.028708752 -0.003932797 0.019573063 0.0037140031 0.023393793 0.024309656
-0.019623622 0.13049836 -0.067387186 -0.06968493 0.08285731 0.08933936 -0.055126246 0.105003715
0.08114854 0.039230973 0.004516927 -0.07875917 -0.045679044 0.074331 0.0655443 0.046666082
0.0036306097 0.14985089 -0.017857026 -0.09722351 0.06213743 -0.021497117 0.048519652 -0.035322666
-0.09740296 0.008338111 -0.10577359 0.04712793 0.08009183 -0.0012762214 0.08852129 0.07452915
-0.085886255 -0.045778077 -0.09669675 0.08707547 0.02217545 -0.043620776 -0.02385048 -0.02807649
-0.055278577 0.025536137 -0.029869704 -0.095113166 -0.0058563356 -0.08814672 0.11850002 -0.087333515
-0.09056543 -0.0040713553 -0.064538255 -0.03945193 -0.08318321 -0.041236646 -0.010920286 0.02957854
0.01475637 -0.031674698 -0.05214145 -0.068250686 0.023991069 0.0017233678 0.047646374 -0.11184203
-0.084330045 -0.028248182 0.022470068 0.033471588 0.07408772 -0.007717336 -0.09414367 0.10208451

weight f4 [10, 6, 1]
00000000: e7b7 d93d f65f 0cbd abd0 04bd d905 36bc
00000010: d665 f9bb 6507 d1bc 013a 7cbd 41fc 87bc
00000020: 7d5a 16bd 03af acbc 197b 83bc da3e 06bd
00000030: c256 c13d c17f 1bbc a391 99bc ac09 3bbc
00000040: c9fd a5ba e306 8bbc 3802 e6bd c02e 0dbd
00000050: 47f8 5cbd fbbf 1dbc e8b4 efbb 559f 11bd
00000060: 9550 ae3d 3fd3 3b3c c473 4a3c d886 533a
00000070: 35d0 013b 982c 233c 6ab6 d93d cbe1 0f3c
00000080: 3d6f a2bc 00f9 023b 3ede 7cbb 07e8 bebc
00000090: d79d c8bd 2c45 01bd b255 21bd ff8a eabc
000000a0: 7842 0abb 376c 30bd 4db9 d5bd 7244 4dbc
000000b0: d5fc ebbc 2d1a 36bb 384f ecba 1725 cabc
000000c0: f476 c4bd 0537 82bc 7684 6bbc 524c d33b
000000d0: 6cb1 ecba 098a 27bc 77c5 a73a 5abc 46bc
000000e0: 79b5 1abc 191c 0f3b 74ea c5bb eb84 983c
0.1063078 -0.034271203 -0.032425564 -0.011109793 -0.0076110167 -0.025516221 -0.061578754 -0.016599776
-0.03670739 -0.021079546 -0.016049908 -0.032774784 0.09440376 -0.009490908 -0.018746203 -0.01141588
-0.0012664135 -0.016971057 -0.11230892 -0.034468412 -0.053947713 -0.009628291 -0.007315267 -0.03555234
0.085114636 0.011463939 0.012356702 0.00080691045 0.001980794 0.009959362 0.10630496 0.008781861
-0.019828433 0.0019984841 -0.0038584615 -0.023303999 -0.097957306 -0.031560108 -0.039388366 -0.028630732
-0.0021096747 -0.04307195 -0.10435734 -0.012528526 -0.028807083 -0.0027786598 -0.001802898 -0.024675889
-0.09593001 -0.015895376 -0.014374843 0.006448307 -0.0018058247 -0.010225781 0.0012799938 -0.012129867
-0.0094426805 0.0021836816 -0.006039912 0.018618068

bias f4 [10]
00000000: 75df bcbc cfd6 ea3c a447 08be a886 593e
00000010: 3da4 cf3e 73f9 853e c94b 98bc ad25 bf3e
00000020: 1f42 713e a55e cabe
-0.023055771 0.028666882 -0.13308579 0.21242774 0.4055499 0.26166877 -0.018590825 0.37333432
0.2356038 -0.39525333

bias f4 [10]
00000000: d7c6 f13d 6f08 bf3d a90d f83d bd22 7cbd
00000010: 355b 083e f080 803c 3565 56bd ce2b 5b3d
00000020: 9cef f73d 081d 91bd
0.11805504 0.093277805 0.121119805 -0.061556567 0.13316043 0.015686482 -0.052342612 0.053508572
0.12106249 -0.070856154

weight_g f4 [10, 1, 1]
00000000: e864 2d3f 0f64 2d3f ff7c 193f ddff 083f
00000010: 1590 2d3f c831 193f dfdc 123f 9a82 0d3f
00000020: 77d7 113f 6640 1b3f
0.67732096 0.677308 0.59956354 0.53515416 0.67797977 0.59841585 0.5736827 0.5527741
0.569694 0.6064514

weight_v f4 [10, 10, 7]
00000000: 635b 713c 4611 55bd c18a 55bd a3b7 783d
00000010: b8cb 48bc c8d0 993d c241 bb3d aeda 753d
00000020: 90aa 8abd 6171 f43b f900 a53d 2524 5cbd
00000030: 7774 19bc 0c03 acbd 04ea f53b 4ac8 5dbc
00000040: 3316 51bc 1c4a c13d a4bf 983d cf2e e4bd
00000050: 09ed 263d 7eec 39bd 8243 1dbd c3c3 653d
00000060: a947 febb 0258 3b3d b12a 013e 9cba 8fbd
00000070: 3621 713c fa97 38bd 20bb 83bd cca7 743c
00000080: d5bc b73b 656b babd 5d61 1e3e 71f8 5bbd
00000090: 0ff3 a23d ec1c 2f3c 777e 543d ffb5 c9bd
000000a0: ced3 933d 8f45 003e 838b 87bd d3a4 02bd
000000b0: 63e9 803d 08d2 f33c c53d a2bc 00c8 c9bd
000000c0: 7ad4 47be d6d8 9c3d edcf 893d f0b0 c43d
000000d0: d036 953b debe 3bbd da8f 26bd f236 a9bd
000000e0: 2d3a 4bbd eec8 13bd 72e0 d9bd 0da2 603d
000000f0: 5861 7b3d 112d ec3d 5dfc 20bb 52b6 8c3c
00000100: 0077 813c f549 a2b7 52f8 05bb 8581 b43b
00000110: 49d5 7538 7e73 efb9 1ade b63d 0eed bcbc
00000120: 159f e73b 572a b4bc fe01 6b3c 4615 3ebd
00000130: a695 ef3d 2b6b 7b3d ac3d 5b3d 2442 8dbd
00000140: 094d b6bd 8beb 993d 5252 8abd 4c48 1f3d
00000150: 93d0 bdbd 284d c5bb 3a01 783d 6067 363d
00000160: 215a 923d dac1 53bc 602d 0c3e d173 523b
00000170: d54f d73d aa23 7cbd 2ddc 263c f688 ec3d
00000180: d771 41bd cb71 17be 32e7 b1bc 2b42 3dbb
00000190: a4a3 423d a838 83bd b697 b3bd a5dd 95bd
000001a0: d23e 1a3d 9ffb eb3d 2f5d 54bd 0b1b d73d
000001b0: aa33 373c b6ae 393d 7a66 3fbd 98fb 8d3b
000001c0: 9f65 6f3c 4e6b b63d 61d9 3cbb 8ba5 cabb
000001d0: 057e 523d 4e2e 81bd 9a29 48be 3000 cb3d
000001e0: b3d1 0c3c 47ef cb3d a6f9 d83d 76e9 7c3d
000001f0: 85bc 343d 1e72 0dbe ad21 423c e348 803d
00000200: 3a04 023d a399 8abd 8ecb fc3b ddfa f83c
00000210: 486d 8dbd 16fc 8cbc 985a 46bd 2c5f f338
00000220: ba0b c4ba 8bfd 193b 5588 9039 d651 4bbb
00000230: afc5 a93d 9d44 863c 7a5c ae3d 9f16 ae3c
00000240: 5eeb 2abd 1966 0b3e d2f8 933b a08b a3bc
00000250: 84b9 00bd cf06 76bd bfe7 e53d 5295 f53b
00000260: 0dac 7e3d c382 eabd 7da5 d23d b0b4 c3bc
00000270: 2063 9c3d f7f4 b7bd 41a0 d43d d129 55bd
00000280: c8a9 973d 2492 183d 70a3 20bd f7e9 e7bd
00000290: 571d b7bd 2018 c33c 3511 efbc 2202 193d
000002a0: 7e30 b23d 9d51 bdbd 3303 80bd 67ab 5d3d
000002b0: 15b1 8fbd cae9 77bd 4a47 e33d 617e cabd
000002c0: e0ef 8cbd 8d77 8c3d 6e95 40bd 073a cf3d
000002d0: cea9 b3bd 416a 1ebd b95d eb3c 9ef6 a03d
000002e0: 2e9c d53c 736d 5ebd cb48 a03c 30c8 d6bd
000002f0: 60a0 d5bd 1a50 9fbd 5e73 1dbd 2fa3 df3d
00000300: 146e 003e 971c 953d 7345 72bd 20d9 b2bd
00000310: d351 893d 45c7 a23d f860 e33a a203 c93c
00000320: 75e4 aebd 8edc 4dbd 2fb6 62bd 57c5 c43d
00000330: 8812 80bc 5450 583c 244e f43d 38d6 af3c
00000340: 983b 923d b456 083d 77d2 0d3c 6ea0 2e3d
00000350: 14bd a7bb ebd1 073d 5368 92bd bcd2 d9bd
00000360: 0212 823d 3da2 023e 37a8 87bd ecc0 84bd
00000370: e452 b13d 4367 0bbd aa62 ddbd 6bbe 553d
00000380: feed 7cbd c89e b33c f538 a8bd b042 543d
00000390: a0ba 9d3d e9e0 3ebd e96a a83d e204 3f3c
000003a0: 176e 93bd a315 683d c890 41bd 9632 03bd
000003b0: f165 c53c f1bc acbd df92 143d bc16 d83d
000003c0: 2123 e3bb 6b29 c63c b2fa a5bd 8667 b53d
000003d0: c207 cebd c3dd 28bc a62e 7439 0bbc 2c3d
000003e0: c9b6 2e3c f5e3 103d dfe2 efbc f825 a93d
000003f0: 6fdd bd3a 267d a63d 3dba 7cbd a824 5ebd
0.014731261 -0.052018426 -0.05213428 0.060722005 -0.012255602 0.07510525 0.09143402 0.060023002
-0.067708135 0.007459805 0.08056826 -0.053745408 -0.009366146 -0.08399019 0.0075047035 -0.013536522
-0.01276164 0.09437963 0.074584275 -0.111417405 0.040753398 -0.045391552 -0.03839446 0.056094896
-0.0077600074 0.045738228 0.12613942 -0.07018015 0.014717391 -0.04506681 -0.06432176 0.014932584
0.0056072273 -0.09102515 0.15466829 -0.05370373 0.07956516 0.010688048 0.05187842 -0.09849166
0.07218133 0.12526534 -0.066184066 -0.03189547 0.06294515 0.029763237 -0.019804845 -0.098526
-0.19514647 0.07658546 0.06729112 0.09604061 0.0045536533 -0.045836322 -0.04066453 -0.08262433
-0.049616028 -0.036080293 -0.10638513 0.054842044 0.06137213 0.11532033 -0.0024564483 0.01717678
0.015803814 -1.9346344e-05 -0.00204422 0.005508604 5.861119e-05 -0.0004567168 0.08929081 -0.023062255
0.0070685246 -0.021992845 0.014343737 -0.046407007 0.11698465 0.0613815 0.05352561 -0.06897381
-0.08901412 0.075156294 -0.067539826 0.038887307 -0.09268298 -0.0060211606 0.060548045 0.04453218
0.07146097 -0.012924636 0.13689184 0.003211249 0.105132736 -0.06155745 0.01018433 0.11549561
-0.047227707 -0.14789502 -0.021716688 -0.002887855 0.04751934 -0.06407291 -0.08769171 -0.07317666
0.037657566 0.11522602 -0.05184668 0.10503205 0.011181751 0.045332633 -0.04672859 0.004332971
0.014611631 0.089071855 -0.0028816091 -0.006184285 0.051389713 -0.0630766 -0.1954712 0.09912145
0.008594918 0.09957748 0.10594492 0.061746083 0.0441251 -0.13813064 0.011848849 0.06263902
0.031742312 -0.06767585 0.0077146953 0.030393058 -0.06905609 -0.017210048 -0.04842624 0.0001160487
-0.0014957108 0.002349707 0.00027567396 -0.003102412 0.08289658 0.01639014 0.08513732 0.021251021
-0.04172837 0.13613166 0.0045157457 -0.01996404 -0.03142692 -0.060065087 0.11225843 0.007494607
0.0621758 -0.11450722 0.10285471 -0.02388987 0.07636094 -0.0898227 0.103821285 -0.052041832
0.0740543 0.037248746 -0.039218366 -0.11323922 -0.08941143 0.023815215 -0.02918301 0.03735555
0.087006554 -0.09244082 -0.0625061 0.05411854 -0.070161976 -0.060525693 0.11097582 -0.09887386
-0.0688169 0.0685874 -0.047017507 0.1011849 -0.08772622 -0.03867555 0.028731214 0.078595385
0.026075449 -0.054303598 0.01956596 -0.104874015 -0.1043098 -0.0777895 -0.0384401 0.10919797
0.12541991 0.07280844 -0.059148263 -0.087328196 0.0670506 0.07948164 0.0017347625 0.024537865
-0.085396685 -0.050259165 -0.055349525 0.09607952 -0.015633836 0.0132027455 0.11928967 0.021464452
0.07140273 0.03328581 0.008656136 0.042633466 -0.0051189754 0.033159178 -0.071488045 -0.106358975
0.06351091 0.12757201 -0.06623881 -0.064821094 0.08658388 -0.034034025 -0.10809834 0.05218355
-0.061750405 0.021926299 -0.08213989 0.05182141 0.077016115 -0.04660121 0.082235165 0.011658879
-0.07198732 0.05666126 -0.047257215 -0.032030664 0.024096461 -0.08434475 0.03627288 0.10551211
-0.006931678 0.024189672 -0.08104457 0.08857636 -0.100600734 -0.010306778 0.00023287031 0.04217152
0.010663697 0.035373647 -0.029282985 0.08259195 0.0014485548 0.08129339 -0.06170105 -0.054234177

weight f4 [10, 10, 7]
00000000: ac2a 923c d308 81bd 6452 81bd c89f 963d
00000010: 9334 73bc 744d ba3d 93ce e23d e7e3 943d
00000020: 20f4 a7bd 1909 143c 95da c73d 7f51 85bd
00000030: a4dd 39bc 9557 d0bd 31ed 143c ef4f 86bc
00000040: 573f 7dbc 1b1d ea3d a002 b93d 3b30 0abe
00000050: 932e 4a3d 3b31 61bd 9e7a 3ebd 7825 8b3d
00000060: 2efe 19bc 86e9 623d a172 1c3e e915 aebd
00000070: 7107 923c cc94 5fbd b48d 9fbd 0d2a 943c
00000080: 5d8b de3b efca e1bd dad4 3f3e 0737 85bd
00000090: 995d c53d 2119 543c eaaf 803d 5450 f4bd
000000a0: b40c b33d 195d 1b3e 502c a4bd a03c 1ebd
000000b0: 8823 9c3d 98a8 133d 0482 c4bc 2366 f4bd
000000c0: 1d09 72be 6bf9 bd3d 50eb a63d dd3b ee3d
000000d0: b0ba b43b 1b66 63bd b6bd 49bd 3cf4 ccbd
000000e0: 7f26 76bd 88ff 32bd 6df2 03be e209 883d
000000f0: a13c 983d 7307 0f3e bafc 42bb 816e aa3c
00000100: 0ecf 9c3c c790 c4b7 f743 22bb 52a1 da3b
00000110: a2e0 9438 3403 11ba a3c6 d83d 2df5 dfbc
00000120: f548 093c 9b92 d5bc c94a 8b3c 5354 61bd
00000130: 3e01 0e3e e004 953d 68f2 813d 8873 a7bd
00000140: ac1a d8bd f975 b63d 4df8 a3bd 45d1 3c3d
00000150: e202 e1bd dae2 e9bb e1fe 923d e539 583d
00000160: 4f7d ad3d bf05 7bbc 722b 263e c779 793b
00000170: 773c ff3d 3b72 95bd d9cc 453c 8532 0c3e
00000180: 7550 65bd b586 33be 12e4 d2bc 125a 60bb
00000190: f6ba 663d 998d 9bbd cae4 d4bd 9fa7 b1bd
000001a0: b1d8 363d bfde 0b3e e3bd 7bbd e3fd fe3d
000001b0: 112c 593c dd1c 5c3d 0ee4 62bd 5f4f a83b
000001c0: c6e4 8d3c 8e3e d83d dadd 5fbb f838 f0bb
000001d0: df85 793d 6322 99bd 1c47 6dbe 6ba4 f03d
000001e0: 3dee 263c d8bf f13d 9e9a 003e 77e7 953d
000001f0: e43f 563d 67ac 27be e620 663c 6e12 983d
00000200: fa1f 1a3d d84c a4bd bdd5 153c d892 133d
00000210: aba6 a7bd 7c20 a7bc 4022 6bbd e33f 1039
00000220: d265 e8ba 4f8b 363b 2455 ab39 3505 71bb
00000230: 059f a83d 925b 853c d92d ad3d 77e8 ac3c
00000240: b6c2 29bd 2674 0a3e fef7 923b c46f a2bc
00000250: 30b4 ffbc ca5b 74bd b558 e43d 12eb f33b
00000260: 07f2 7c3d baeb e8bd e137 d13d 0261 c2bc
00000270: b153 9b3d aeb5 b6bd 362f d33d d7b7 53bd
00000280: 8ca2 963d 5589 173d a08c 1fbd 7157 e6bd
00000290: 84df b5bd 82c5 c13c 4472 edbc 90f8 173d
000002a0: 38fb b03d 0509 bcbd 074a 7ebd a82a 5c3d
000002b0: afb7 8ebd 7f3b 76bd d0bc e13d ec1e c9bd
000002c0: 42fb 8bbd bf83 8b3d 2c47 3fbd 5ad2 cd3d
000002d0: f971 b2bd 4d57 1dbd 35c5 e93c 3ddf 9f3d
000002e0: 6d29 d43c 64eb 5cbd 9832 9f3c 6753 d5bd
000002f0: 982d d4bd 973b 9ebd 1662 1cbd 071f de3d
00000300: 551e ff3d c819 943d f4a0 70bd b5a2 b1bd
00000310: 7c63 883d beac a13d 52d6 e13a bea6 c73c
00000320: e8b4 adbd 4077 4cbd b02c 61bd d06f c33d
00000330: 7c68 7ebc e2d8 563c 1da6 f23d 07a5 ae3c
00000340: c93d 913d 116a 073d 5c71 0e3c 1364 2f3d
00000350: 0279 a8bb 156a 083d 5b0c 93bd c7c6 dabd
00000360: bca3 823d 9934 033e 3340 88bd a755 85bd
00000370: 8f19 b23d 7203 0cbd b25a debd e3ad 563d
00000380: 5d09 7ebd 0568 b43c 6df5 a8bd 7f30 553d
00000390: 576b 9e3d c3b6 3fbd 9927 a93d e5da 3f3c
000003a0: 4313 94bd a819 693d a569 42bd 93c5 03bd
000003b0: 1943 c63c 797e adbd 5439 153d d508 d93d
000003c0: 9b21 e4bb 6e07 c73c a7b4 a6bd c332 b63d
000003d0: 96ee cebd f49a 29bc 3840 7539 927d 2d3d
000003e0: 877a 2f3c 4a86 113d a2ef f0bc 7ae3 a93d
000003f0: 27b2 be3a ad37 a73d 62d5 7dbd 891d 5fbd
0.017842613 -0.06300511 -0.06314543 0.073546946 -0.014844078 0.09096804 0.11074557 0.072700314
-0.0820086 0.009035372 0.09758488 -0.06509685 -0.011344347 -0.10172955 0.009089754 -0.016395537
-0.015456996 0.11431333 0.09033704 -0.13494961 0.049360823 -0.05497859 -0.046503656 0.06794256
-0.00939898 0.055398487 0.15278102 -0.08500273 0.017825814 -0.054585263 -0.077906996 0.018086458
0.0067915157 -0.11025035 0.1873354 -0.06504636 0.09636993 0.012945444 0.06283553 -0.11929384
0.08742657 0.15172233 -0.080162644 -0.038632035 0.076239645 0.036049455 -0.023987778 -0.119335435
-0.23636289 0.09276088 0.08150351 0.11632512 0.005515419 -0.055517297 -0.049253188 -0.100075215
-0.060095306 -0.043700725 -0.12885447 0.0664251 0.07433439 0.13967685 -0.0029752688 0.020804645
0.0191417 -2.3432438e-05 -0.0024759748 0.006672063 7.099031e-05 -0.00055317883 0.10584762 -0.027338589
0.008379211 -0.026070883 0.017003434 -0.05501206 0.13867661 0.072763205 0.063450634 -0.08176333
-0.10551962 0.0890922 -0.08006344 0.046098012 -0.10986878 -0.0071376385 0.071775205 0.052789588
0.08471166 -0.015321194 0.1622751 0.003806697 0.12462705 -0.07297178 0.012072765 0.13691147
-0.055984933 -0.17531855 -0.025743518 -0.0034233374 0.056330644 -0.07595367 -0.103952006 -0.08674549
0.044640247 0.1365919 -0.061460387 0.12450769 0.013255135 0.053738464 -0.05539327 0.005136415
0.017321002 0.10558806 -0.0034159333 -0.00733101 0.060918685 -0.07477262 -0.23171657 0.1175011
0.010188636 0.118041694 0.12558982 0.07319539 0.052307025 -0.1637436 0.01404593 0.0742539
0.03762815 -0.08022469 0.009145197 0.036028713 -0.08186086 -0.020401232 -0.05740571 0.0001375671
-0.001773054 0.002785403 0.00032679096 -0.0036776785 0.082334556 0.016279016 0.0845601 0.021106942
-0.041445456 0.1352087 0.0044851294 -0.019828685 -0.03121385 -0.05965785 0.11149732 0.007443794
0.061754253 -0.11373086 0.10215736 -0.023727898 0.07584322 -0.089213714 0.10311739 -0.051688995
0.07355222 0.036996204 -0.03895247 -0.11247147 -0.08880523 0.02365375 -0.02898515 0.037102282
0.08641666 -0.09181408 -0.062082317 0.053751618 -0.069686286 -0.060115334 0.11022341 -0.09820351
-0.06835033 0.06812238 -0.046698734 0.10049887 -0.08713145 -0.038413335 0.028536418 0.07806251
0.02589866 -0.053935423 0.019433305 -0.10416298 -0.10360259 -0.077262096 -0.03817948 0.10845762
0.12456957 0.0723148 -0.058747247 -0.08673612 0.066596 0.07894276 0.001723001 0.024371501
-0.08481771 -0.049918413 -0.054974258 0.09542811 -0.015527841 0.013113232 0.1184809 0.021318926
0.07091863 0.033060137 0.008694019 0.042820048 -0.0051413784 0.033304293 -0.07180091 -0.10682445
0.06378886 0.12813033 -0.0665287 -0.065104775 0.08696281 -0.034182973 -0.108571425 0.052411925
-0.06202065 0.022022257 -0.08249936 0.052048203 0.07735317 -0.046805155 0.08259506 0.011709903
-0.072302364 0.056909233 -0.04746403 -0.032170843 0.024201917 -0.08471388 0.036431625 0.10597388
-0.006962014 0.024295535 -0.081399255 0.08896401 -0.101041004 -0.010351885 0.00023388944 0.04235608
0.010710365 0.03552846 -0.02941114 0.08295341 0.0014548943 0.08164916 -0.061971076 -0.054471526

bias f4 [10]
00000000: 07c3 d83d 920e 85bd 160d f33c e21a 57bd
00000010: 0eff de3c 9e9c 2e3c 588e 1cbd 141c ffbd
00000020: f34d 1d3d d376 d0bd
0.105840735 -0.0649692 0.029669326 -0.05251587 0.027221229 0.010657458 -0.038221687 -0.12456527
0.038404416 -0.10178914

weight_g f4 [10, 1, 1]
00000000: 36bb 0a3f 1375 083f b084 1c3f 0e33 213f
00000010: 252a 103f 32dd 153f 4bed 123f 98e7 113f
00000020: 048d 133f 0d5b 053f
0.5419191 0.5330364 0.61139965 0.6296853 0.5631431 0.5854064 0.5739333 0.5699401
0.5763705 0.5209206

weight_v f4 [10, 10, 7]
00000000: b254 5ebd 1312 2b3c 48e1 09bd 5f35 9dbd
00000010: 041f 3d3d cd50 053b db97 113e e840 c2bd
00000020: 8e72 4bbd 4e58 9dbd 571c 7a3d bb0f a83c
00000030: ac9a 14bd 6149 533a 5a63 18bc 64d8 843d
00000040: 2ccf c5bc 6dcf 2b3c eed1 77bd 2882 b53d
00000050: addb bd3c c26d 283d 06f4 acbd e39e 2a3c
00000060: 89c1 a2bc 3753 733d 9255 203d 27a0 143d
00000070: 2aa5 bd3d 88a6 bdbd 3c95 473d a905 033d
00000080: 19c8 d03d 9a90 bfbd 1b15 c73d 6450 0c3d
00000090: 5318 19bd 8000 233c 2a5b a8bd f4a4 1c3c
000000a0: 6710 2d3d 4dbb f03d b73b e0bd 4b5f 0f3d
000000b0: e611 223d c3ae 163c d4ee 9cbc cd4d 153d
000000c0: d0c1 d33d e3d8 893c cafe 7bbd 8713 983d
000000d0: 28ba b3bc 712f c93c f4b3 033d e63c 06bd
000000e0: 1ced 273d 4f6f 6d3d 363a b7bd 921d cbbd
000000f0: 399c 8b3c 8f1e db3d 538d 8ebc c915 183c
00000100: 6362 c8bd 465c 99bd 4769 bfbb b7e1 72bd
00000110: 617c 633c 039a 7b3d feef 583d 0426 4fbd
00000120: 01a5 3d3d b1dd 7e3d 6cb9 b03d 5129 b33d
00000130: faec 72bd a00b 6a3b e125 4f3d 3e3e 77bd
00000140: 4dce 2a3d 0757 50bd 6719 033e f367 283d
00000150: c25c b73d 37d8 c23d c61a e63b 5829 7abd
00000160: 4536 e4bc 8730 3fbd 1c7f f3bc 0936 ab3d
00000170: 3c6f 363d 4f86 0b3d 1511 a0bd e5a2 e4bc
00000180: 2280 cdbc 3787 0dbd 1faf bbbc de89 e23d
00000190: 24f4 4c3d 415d a1bc 071f 993d 21ba 3a3c
000001a0: 3509 f8bb d568 b93c caf9 f23c 64fd 6b3d
000001b0: cff1 ecbc e1fa 5b3d 2b45 c2bd 672a a8bd
000001c0: 16d9 82bd 60a9 913d a414 87bd d8ea 393d
000001d0: 1b54 1e3d 71eb bbbc 4289 a63d 65b1 01bd
000001e0: a43e a0bd 32ef a2bc b4d0 d2bd e6a8 d9bc
000001f0: d0b8 75bd 2c9c 1a3d 8758 dbbd 7921 e2bd
00000200: 4624 b53d 59e3 dabd 14e0 3f3c c807 453d
00000210: 3ca4 d73d 9b3d 75bd 520e 123d 2eb2 d9bd
00000220: 6bfb 683d c74a a8bd 29ec 99bd 6ace 0f3d
00000230: 8a22 bf3b 6ca2 cebd 8826 ed3c cb86 cabd
00000240: eb42 b23c 45c4 1fbd 1e97 35bd ce54 09bd
00000250: 0d60 9bbd 5708 a4bd b41d 00bd f3a2 393b
00000260: 8875 02bd 561f 2f3e 2162 e83d a668 86bd
00000270: 411b b2bc e9ff cb3b 7e0d 52bd f3c1 f5bd
00000280: fb50 043e 8537 c03c afdb 05bd 2dee 5abd
00000290: 8042 03bb d7e7 b1bd 8b3a 94bc 03c4 9c3c
000002a0: a07f 943d 7724 c4bd 1235 883b 9f71 c13c
000002b0: c02d 4cbd 806e 15bd 6f21 2d3e 0bbf b83d
000002c0: 6c76 a53c 1049 92bd c62c 073d 0dc0 843d
000002d0: 79e5 a8bd 6230 9b3d ed74 a63d ffd0 273d
000002e0: 11f5 2bbb ed0f 633d 003d ce3d ba41 7abc
000002f0: 607c 16bd d83e a13d d6ec a2bd 7d9c c0bd
00000300: 1c81 adbd ab52 5cbb ab3f 3c3d fe51 78bd
00000310: 33c4 a13d bf85 00bd 8041 d43d 8ee0 f63d
00000320: 86d9 383d aea5 0abc 182b 2f3d f572 e33c
00000330: f870 6e3d 7c4b aebd f959 df3d e226 ff3a
00000340: 0314 a93d 25a9 c23d 1369 c93d 6830 97bd
00000350: 9913 d53d 37b5 363c d26c e8bc c9ac a13d
00000360: b7f1 0fbe 59c2 5e3c 9a01 3bbd c387 f73b
00000370: bc6b f63d a3ed dc3d a83e db3c 6a74 ffbd
00000380: 2b23 63ba 9e60 95bd 03d4 813d 5c55 4cbd
00000390: 9a98 193d ddd5 063e 8595 e33c eec0 953d
000003a0: 7b57 09bc 0a02 e4bc aea1 61bc 35fa e23a
000003b0: 2523 41bd 0a28 213d 2614 8d3d 3912 aebd
000003c0: 8307 32bd 216a bb3d 1ac3 1dbd affb 913d
000003d0: 15a2 f0bd a00b 99bd 5c7f ec3d c7b4 6b3c
000003e0: 7ea7 e13d 723f c6bc f43a 98bd c238 edbd
000003f0: f47e debc 3137 793d ae90 f83c 8522 dc38
-0.05427999 0.010441321 -0.03366211 -0.07676195 0.046172157 0.002034235 0.14218085 -0.09485036
-0.049669795 -0.076828584 0.061062183 0.020515313 -0.03628032 0.00080599455 -0.009301031 0.06486586
-0.024146639 0.010486466 -0.06050294 0.08862716 0.023176039 0.0411203 -0.08444981 0.010413858
-0.019867675 0.05940553 0.039144106 0.036285546 0.09260018 -0.09260279 0.048726305 0.03198782
0.101944156 -0.093537524 0.097208224 0.034256354 -0.037376713 0.00994885 -0.08220513 0.009560812
0.04225197 0.11754475 -0.1094889 0.035002988 0.03956785 0.00919694 -0.01915685 0.03645115
0.10339701 0.016827052 -0.061522283 0.074255995 -0.021939352 0.024558755 0.03215404 -0.03277292
0.04099761 0.05796748 -0.0894665 -0.099177495 0.017042266 0.10699188 -0.017401373 0.009282538
-0.09784391 -0.07488303 -0.0058414075 -0.05929729 0.013884635 0.061426174 0.05296325 -0.050573364
0.046299938 0.06222314 0.086291164 0.08748115 -0.05930803 0.0035712495 0.050573234 -0.060362093
0.04170065 -0.050864246 0.12802659 0.04111476 0.08953239 0.09513896 0.0070222346 -0.061074585
-0.027857909 -0.04667714 -0.029723696 0.08359916 0.044539675 0.034063634 -0.07815758 -0.027909705
-0.025085513 -0.03455278 -0.022910653 0.11061452 0.05003752 -0.019697787 0.07476621 0.011396916
-0.007569457 0.022632996 0.029660124 0.0576147 -0.028923897 0.053706054 -0.09485849 -0.082112126
-0.06389062 0.07112384 -0.06595734 0.04538998 0.038654428 -0.022939416 0.081316486 -0.031663317
-0.07824448 -0.019889448 -0.10293713 -0.026569795 -0.059990704 0.037746593 -0.107102446 -0.11041541
0.08844809 -0.106878944 0.011711139 0.048103124 0.10529372 -0.059873205 0.03565819 -0.10629688
0.056880396 -0.08217388 -0.07515747 0.03510896 0.005832975 -0.10089573 0.028949037 -0.09888991
0.021760425 -0.039005537 -0.04433357 -0.03352814 -0.075866796 -0.08009403 -0.031278327 0.0028325885
-0.031850368 0.17101797 0.113468416 -0.06562929 -0.021741511 0.006225575 -0.0512824 -0.119998835
0.12921517 0.023463974 -0.03268021 -0.0534498 -0.002002865 -0.08686798 -0.018094322 0.019136434
0.07250905 -0.095772676 0.004156717 0.02361375 -0.049848318 -0.036482334 0.16907285 0.090208136
0.02019807 -0.07142842 0.033001684 0.06481943 -0.082468934 0.07577588 0.081277706 0.0409708
-0.00262386 0.05543511 0.100702286 -0.0152744595 -0.036739707 0.078733146 -0.07955329 -0.09404848
-0.08471891 -0.003361861 0.045959156 -0.06062507 0.0789875 -0.03137755 0.10364056 0.12054549
0.04512932 -0.008462353 0.042765707 0.027764777 0.058213204 -0.08510491 0.10905833 0.0019466544
0.0825577 0.09504918 0.098344944 -0.0738228 0.104041286 0.011151603 -0.028372202 0.07894284
-0.1405705 0.013596141 -0.045655824 0.007554026 0.120322675 0.10787513 0.026763275 -0.12473376
-0.0008664603 -0.07293819 0.06339266 -0.049886093 0.037499048 0.1316752 0.027781257 0.07312189
-0.008382673 -0.027833004 -0.013771458 0.0017316999 -0.047152657 0.039344825 0.06888609 -0.084995694
-0.043464195 0.09151102 -0.03851614 0.07128083 -0.11749665 -0.074729204 0.115477294 0.014386362
0.11018275 -0.024200175 -0.074331194 -0.11583091 -0.027160145 0.06084365 0.030342426 0.00010496847
